uchiyats@uchiyats-Super-Server:~/python_asr-notstft/10transformer_nar_mfcc_half$ python 02_train_nar_mfcc.py 
/home/uchiyats/.local/lib/python3.12/site-packages/torch/nn/modules/transformer.py:382: UserWarning: enable_nested_tensor is True, but self.use_nested_tensor is False because encoder_layer.norm_first was True
  warnings.warn(
MyE2EModel(
  (encoder): Encoder(
    (pos_emb): Embedding(3000, 512)
    (convs): Sequential(
      (0): Conv1d(13, 256, kernel_size=(5,), stride=(2,), padding=(2,), bias=False)
      (1): BatchNorm1d(256, eps=1e-05, momentum=0.1, affine=True, track_running_stats=True)
      (2): ReLU()
      (3): Dropout(p=0.1, inplace=False)
      (4): Conv1d(256, 512, kernel_size=(5,), stride=(2,), padding=(2,), bias=False)
      (5): BatchNorm1d(512, eps=1e-05, momentum=0.1, affine=True, track_running_stats=True)
      (6): ReLU()
      (7): Dropout(p=0.1, inplace=False)
      (8): Conv1d(512, 512, kernel_size=(5,), stride=(2,), padding=(2,), bias=False)
      (9): BatchNorm1d(512, eps=1e-05, momentum=0.1, affine=True, track_running_stats=True)
      (10): ReLU()
      (11): Dropout(p=0.1, inplace=False)
    )
    (transformer_encoder): TransformerEncoder(
      (layers): ModuleList(
        (0-23): 24 x TransformerEncoderLayer(
          (self_attn): MultiheadAttention(
            (out_proj): NonDynamicallyQuantizableLinear(in_features=512, out_features=512, bias=True)
          )
          (linear1): Linear(in_features=512, out_features=2048, bias=True)
          (dropout): Dropout(p=0.1, inplace=False)
          (linear2): Linear(in_features=2048, out_features=512, bias=True)
          (norm1): LayerNorm((512,), eps=1e-05, elementwise_affine=True)
          (norm2): LayerNorm((512,), eps=1e-05, elementwise_affine=True)
          (dropout1): Dropout(p=0.1, inplace=False)
          (dropout2): Dropout(p=0.1, inplace=False)
        )
      )
      (norm): LayerNorm((512,), eps=1e-05, elementwise_affine=True)
    )
  )
  (classifier): Linear(in_features=512, out_features=2921, bias=False)
)
epoch 1/20:
    train loss: 6.037760
    train token error rate: 80.236466 %
    validation loss: 4.507837
    validation token error rate: 66.094669 %
dev      reference:   <sos>文体が作家に持つ関係は色彩が画家に対するのと同じである<eos>
dev      hypothesis:  <sos>分体がさたにも使は識さ学かに体するのとな時である<eos>
dev      reference:   <sos>年輩の夫婦は贈り物より現金を好むことが多いがそれはそうした贈り物は必要でもなければ置く場所もないからである<eos>
…
