uchiyats@uchiyats-Super-Server:~/python_asr-notstft/11whisper_trf_wav$ python 02_train_nar_whisper_wav.py 
MyE2EModel(
  (fe): FeatureExtractor(
    (convs): Sequential(
      (0): Conv1d(1, 512, kernel_size=(10,), stride=(5,))
      (1): BatchNorm1d(512, eps=1e-05, momentum=0.1, affine=True, track_running_stats=True)
      (2): GELU(approximate='tanh')
      (3): Conv1d(512, 512, kernel_size=(3,), stride=(2,))
      (4): BatchNorm1d(512, eps=1e-05, momentum=0.1, affine=True, track_running_stats=True)
      (5): GELU(approximate='tanh')
      (6): Conv1d(512, 512, kernel_size=(3,), stride=(2,))
      (7): BatchNorm1d(512, eps=1e-05, momentum=0.1, affine=True, track_running_stats=True)
      (8): GELU(approximate='tanh')
      (9): Conv1d(512, 512, kernel_size=(3,), stride=(2,))
      (10): BatchNorm1d(512, eps=1e-05, momentum=0.1, affine=True, track_running_stats=True)
      (11): GELU(approximate='tanh')
      (12): Conv1d(512, 512, kernel_size=(3,), stride=(2,))
      (13): BatchNorm1d(512, eps=1e-05, momentum=0.1, affine=True, track_running_stats=True)
      (14): GELU(approximate='tanh')
      (15): Conv1d(512, 512, kernel_size=(2,), stride=(2,))
      (16): BatchNorm1d(512, eps=1e-05, momentum=0.1, affine=True, track_running_stats=True)
      (17): GELU(approximate='tanh')
      (18): Conv1d(512, 512, kernel_size=(2,), stride=(2,))
      (19): BatchNorm1d(512, eps=1e-05, momentum=0.1, affine=True, track_running_stats=True)
      (20): GELU(approximate='tanh')
    )
    (ln): LayerNorm((512,), eps=1e-05, elementwise_affine=True)
    (linear): Linear(in_features=512, out_features=512, bias=True)
    (dropout): Dropout(p=0.1, inplace=False)
  )
  (encoder): Encoder(
    (pos_emb): Embedding(4000, 512)
    (convs): Sequential(
      (0): Conv1d(512, 512, kernel_size=(5,), stride=(1,), padding=(2,), bias=False)
      (1): BatchNorm1d(512, eps=1e-05, momentum=0.1, affine=True, track_running_stats=True)
      (2): ReLU()
      (3): Dropout(p=0.1, inplace=False)
      (4): Conv1d(512, 512, kernel_size=(5,), stride=(1,), padding=(2,), bias=False)
      (5): BatchNorm1d(512, eps=1e-05, momentum=0.1, affine=True, track_running_stats=True)
      (6): ReLU()
      (7): Dropout(p=0.1, inplace=False)
      (8): Conv1d(512, 512, kernel_size=(5,), stride=(1,), padding=(2,), bias=False)
      (9): BatchNorm1d(512, eps=1e-05, momentum=0.1, affine=True, track_running_stats=True)
      (10): ReLU()
      (11): Dropout(p=0.1, inplace=False)
    )
    (blocks): ModuleList(
      (0-11): 12 x ResidualAttentionBlock(
        (attn): MultiHeadAttention(
          (query): Linear(in_features=512, out_features=512, bias=True)
          (key): Linear(in_features=512, out_features=512, bias=False)
          (value): Linear(in_features=512, out_features=512, bias=True)
          (out): Linear(in_features=512, out_features=512, bias=True)
          (layer_norm): LayerNorm((512,), eps=1e-05, elementwise_affine=True)
          (dropout): Dropout(p=0.1, inplace=False)
        )
        (attn_ln): LayerNorm((512,), eps=1e-05, elementwise_affine=True)
        (pos_ffn): PositionwiseFeedForward(
          (w_1): Conv1d(512, 2048, kernel_size=(5,), stride=(1,), padding=(2,))
          (w_2): Conv1d(2048, 512, kernel_size=(1,), stride=(1,))
          (layer_norm): LayerNorm((512,), eps=1e-05, elementwise_affine=True)
          (dropout): Dropout(p=0.1, inplace=False)
        )
      )
    )
    (dropout): Dropout(p=0.1, inplace=False)
  )
  (decoder): Decoder(
    (blocks): ModuleList(
      (0-11): 12 x ResidualAttentionBlock(
        (attn): MultiHeadAttention(
          (query): Linear(in_features=512, out_features=512, bias=True)
          (key): Linear(in_features=512, out_features=512, bias=False)
          (value): Linear(in_features=512, out_features=512, bias=True)
          (out): Linear(in_features=512, out_features=512, bias=True)
          (layer_norm): LayerNorm((512,), eps=1e-05, elementwise_affine=True)
          (dropout): Dropout(p=0.1, inplace=False)
        )
        (attn_ln): LayerNorm((512,), eps=1e-05, elementwise_affine=True)
        (cross_attn): MultiHeadAttention(
          (query): Linear(in_features=512, out_features=512, bias=True)
          (key): Linear(in_features=512, out_features=512, bias=False)
          (value): Linear(in_features=512, out_features=512, bias=True)
          (out): Linear(in_features=512, out_features=512, bias=True)
          (layer_norm): LayerNorm((512,), eps=1e-05, elementwise_affine=True)
          (dropout): Dropout(p=0.1, inplace=False)
        )
        (cross_attn_ln): LayerNorm((512,), eps=1e-05, elementwise_affine=True)
        (pos_ffn): PositionwiseFeedForward(
          (w_1): Conv1d(512, 2048, kernel_size=(5,), stride=(1,), padding=(2,))
          (w_2): Conv1d(2048, 512, kernel_size=(1,), stride=(1,))
          (layer_norm): LayerNorm((512,), eps=1e-05, elementwise_affine=True)
          (dropout): Dropout(p=0.1, inplace=False)
        )
      )
    )
  )
  (classifier): Linear(in_features=512, out_features=2921, bias=False)
)
epoch 1/20:
    train loss: 6.790662
    train token error rate: 91.176502 %
    validation loss: 4.621934
    validation token error rate: 67.079693 %
dev      reference:   <sos>文体が作家に持つ関係は色彩が画家に対するのと同じである<eos>
dev      hypothesis:  <sos>レ対がったにのつか形は一在のたに対するのとがである<eos>
dev      reference:   <sos>年輩の夫婦は贈り物より現金を好むことが多いがそれはそうした贈り物は必要でもなければ置く場所もないからである<eos>
…
