uchiyats@uchiyats-Super-Server:~/python_asr-notstft/11whisper_trf_mfcc_half$ python 02_train_nar_whisper_mfcc.py 
MyE2EModel(
  (encoder): Encoder(
    (pos_emb): Embedding(3000, 512)
    (convs): Sequential(
      (0): Conv1d(13, 256, kernel_size=(5,), stride=(2,), padding=(2,), bias=False)
      (1): BatchNorm1d(256, eps=1e-05, momentum=0.1, affine=True, track_running_stats=True)
      (2): ReLU()
      (3): Dropout(p=0.1, inplace=False)
      (4): Conv1d(256, 512, kernel_size=(5,), stride=(1,), padding=(2,), bias=False)
      (5): BatchNorm1d(512, eps=1e-05, momentum=0.1, affine=True, track_running_stats=True)
      (6): ReLU()
      (7): Dropout(p=0.1, inplace=False)
      (8): Conv1d(512, 512, kernel_size=(5,), stride=(1,), padding=(2,), bias=False)
      (9): BatchNorm1d(512, eps=1e-05, momentum=0.1, affine=True, track_running_stats=True)
      (10): ReLU()
      (11): Dropout(p=0.1, inplace=False)
    )
    (blocks): ModuleList(
      (0-11): 12 x ResidualAttentionBlock(
        (attn): MultiHeadAttention(
          (query): Linear(in_features=512, out_features=512, bias=True)
          (key): Linear(in_features=512, out_features=512, bias=False)
          (value): Linear(in_features=512, out_features=512, bias=True)
          (out): Linear(in_features=512, out_features=512, bias=True)
          (layer_norm): LayerNorm((512,), eps=1e-05, elementwise_affine=True)
          (dropout): Dropout(p=0.1, inplace=False)
        )
        (attn_ln): LayerNorm((512,), eps=1e-05, elementwise_affine=True)
        (pos_ffn): PositionwiseFeedForward(
          (w_1): Conv1d(512, 2048, kernel_size=(5,), stride=(1,), padding=(2,))
          (w_2): Conv1d(2048, 512, kernel_size=(1,), stride=(1,))
          (layer_norm): LayerNorm((512,), eps=1e-05, elementwise_affine=True)
          (dropout): Dropout(p=0.1, inplace=False)
        )
      )
    )
    (dropout): Dropout(p=0.1, inplace=False)
  )
  (decoder): Decoder(
    (blocks): ModuleList(
      (0-11): 12 x ResidualAttentionBlock(
        (attn): MultiHeadAttention(
          (query): Linear(in_features=512, out_features=512, bias=True)
          (key): Linear(in_features=512, out_features=512, bias=False)
          (value): Linear(in_features=512, out_features=512, bias=True)
          (out): Linear(in_features=512, out_features=512, bias=True)
          (layer_norm): LayerNorm((512,), eps=1e-05, elementwise_affine=True)
          (dropout): Dropout(p=0.1, inplace=False)
        )
        (attn_ln): LayerNorm((512,), eps=1e-05, elementwise_affine=True)
        (cross_attn): MultiHeadAttention(
          (query): Linear(in_features=512, out_features=512, bias=True)
          (key): Linear(in_features=512, out_features=512, bias=False)
          (value): Linear(in_features=512, out_features=512, bias=True)
          (out): Linear(in_features=512, out_features=512, bias=True)
          (layer_norm): LayerNorm((512,), eps=1e-05, elementwise_affine=True)
          (dropout): Dropout(p=0.1, inplace=False)
        )
        (cross_attn_ln): LayerNorm((512,), eps=1e-05, elementwise_affine=True)
        (pos_ffn): PositionwiseFeedForward(
          (w_1): Conv1d(512, 2048, kernel_size=(5,), stride=(1,), padding=(2,))
          (w_2): Conv1d(2048, 512, kernel_size=(1,), stride=(1,))
          (layer_norm): LayerNorm((512,), eps=1e-05, elementwise_affine=True)
          (dropout): Dropout(p=0.1, inplace=False)
        )
      )
    )
  )
  (classifier): Linear(in_features=512, out_features=2921, bias=False)
)
epoch 1/20:
n_batch:2375
    train loss: 0.243841
    train token error rate: 81.749195 %
n_batch:63
    validation loss: 0.148902
    validation token error rate: 56.953111 %
train    reference:   <sos>れい<eos>
train    hypothesis:  <sos>れ<eos>
train    reference:   <sos>池の中に魚がいます<eos>
train    hypothesis:  <sos>一きのでに食ががいます<eos>
train    reference:   <sos>自己を顧みる人間らしい態度である<eos>
…
